src/main/resources/models/cnn.onnx (onnx, 143636 bytes, 5 tensors)

sequential_2/transaction/Conv1D/ExpandDims_1:0 f4 [32, 1, 1, 2]
0	0xbafebc25	-0.0019434734
1	0x3e82e5ef	0.2556605
2	0xbeb3bce8	-0.35105062
3	0xbe8d456e	-0.27592033
4	0xbeda92a4	-0.42690003
5	0x3e136244	0.14392954
6	0xbb38cff1	-0.0028200115
7	0x3b0d4579	0.0021556302
8	0x3f3d7805	0.7401126
9	0xbe23e9fd	-0.16007228
10	0xbf6dd4e4	-0.9290297
11	0xbe2a4bba	-0.1663045
12	0x3d9cf79a	0.07664414
13	0xbcf386a6	-0.029727291
14	0x39de0e5b	0.00042353835
15	0x39afa91d	0.000335046
16	0x3e01cf39	0.12676705
17	0xbe994d5e	-0.2994184
18	0xbb0e1b27	-0.0021683665
19	0x3abe4153	0.0014515318
20	0xbc8fde28	-0.017561987
21	0xbf1694f7	-0.5882105
22	0xbef5d583	-0.4801446
23	0x3df74ec5	0.12075571
24	0xbc321c9e	-0.010871081
25	0xbf12fa3e	-0.5741309
26	0xbcd22928	-0.02565439
27	0xbf1ca21d	-0.61184865
28	0x3ee823a7	0.453397
29	0xbea45fba	-0.32104284
30	0xbb4a0cf4	-0.0030830475
31	0xbb7fcc02	-0.003903151
32	0xbc32f489	-0.01092256
33	0xbf040594	-0.5157101
34	0x3b64975c	0.0034880256
35	0xb9f89794	-0.0004741518
36	0xbdc968b0	-0.09834421
37	0xbeaf59fa	-0.34248334
38	0x3ebd1c5a	0.36935693
39	0x3e728baa	0.2368609
40	0xbe91e50c	-0.2849506
41	0xbeb52a4c	-0.35383832
42	0xba00cf47	-0.0004913699
43	0x3f943a15	1.1580225
44	0xba106a07	-0.00055089634
45	0x39e8cedc	0.0004440461
46	0xbc86f5ec	-0.016474687
47	0xbf1915e4	-0.5979903
48	0x3ebfec8a	0.37485152
49	0x3e121f9b	0.14269869
50	0x3dad53e0	0.084632635
51	0xbc1ec554	-0.009690601
52	0xbea2525c	-0.3170346
53	0x3eab9fe5	0.33520427
54	0x3b81941d	0.003954424
55	0xbc483cae	-0.012221498
56	0xbc0ad0f9	-0.0084726745
57	0xbf1a6855	-0.6031545
58	0x3d918233	0.07104912
59	0xbe9e7070	-0.30945158
60	0x3bc4564a	0.005991732
61	0xbef73fb3	-0.48290786
62	0xbee4e21a	-0.44703752
63	0x3e0ded98	0.13860166

sequential_2/isFraud/MatMul/ReadVariableOp:0 f4 [64, 1]
0	0xbe35b6b2	-0.17745474
1	0x3d22d21e	0.039751165
2	0xbe2f5ccb	-0.17125241
3	0x3d9e6f04	0.07736018
4	0x3ea2d82d	0.31805554
5	0x3cc82b99	0.024434851
6	0x3c717c4a	0.0147391055
7	0x3f065162	0.5246793
8	0x3d83a360	0.06427646
9	0x3ad76161	0.0016432219
10	0xbeaee35e	-0.34157842
11	0x3dc4a54a	0.09601839
12	0x3e8c2e8a	0.27379256
13	0xbe5937b7	-0.2121266
14	0x3e816cd7	0.2527835
15	0x3dc17187	0.09445482
16	0xbe321f4e	-0.17394754
17	0x3f2c8e32	0.6740447
18	0x3e0b2ff7	0.13592516
19	0xbd648088	-0.05578664
20	0xbe214b35	-0.15751345
21	0x3df7e27d	0.12103746
22	0x3e75783d	0.23971649
23	0xbeb34f76	-0.3502156
24	0xbe513b2b	-0.20432727
25	0x3ea40ca0	0.32040882
26	0xbec51f52	-0.38500458
27	0xbe32dffe	-0.17468259
28	0x3ec887eb	0.39166197
29	0x3cc7be44	0.024382718
30	0x3d3c3ffd	0.04595946
31	0x3ecd8cfb	0.40146622
32	0x3d03a9ed	0.032144476
33	0xbe6cac9c	-0.2311272
34	0x3e0e72b0	0.13910937
35	0xbe419698	-0.18905103
36	0x3cf279b5	0.02959905
37	0xbf2acd71	-0.6671973
38	0xbe35de13	-0.17760496
39	0x3f379b1d	0.7172106
40	0xbe9e8c78	-0.30966544
41	0x3fd31263	1.6489986
42	0xbe3dcf74	-0.18536168
43	0x3e602a7a	0.21891204
44	0x40050d0e	2.0789218
45	0xbeef6a28	-0.46760678
46	0xbe40e201	-0.18836214
47	0x3db2108d	0.08694563
48	0xbf91c28c	-1.1387496
49	0x3e9adf60	0.30248547
50	0xbe8c3d1c	-0.27390373
51	0xbe93b912	-0.28852135
52	0xbe90b7c8	-0.28265214
53	0xbdd0a23b	-0.10187193
54	0xbec2d193	-0.38050517
55	0x3e0840dc	0.13305992
56	0xbe081bf4	-0.13291913
57	0x3eeb5314	0.4596182
58	0xbe1895da	-0.14900914
59	0x3dc5dbd0	0.096610665
60	0xbead5893	-0.3385664
61	0xbf5a3831	-0.8524199
62	0xbe8bdfd7	-0.27319214
63	0xbe4dba82	-0.20090678

sequential_2/dense_2/MatMul/ReadVariableOp:0 f4 [544, 64]
0	0xbdd8ab83	-0.10579588
1	0xbcffd69d	-0.031230265
2	0xbc1f1b1a	-0.009711051
3	0x3e034efd	0.128231
4	0x3dcbe634	0.09956017
5	0x3e22799c	0.15866703
6	0x3dc88edd	0.09792874
7	0x3e038384	0.12843138
8	0xbc2f162b	-0.010686438
9	0x3e044d41	0.12920095
10	0xbd0784e0	-0.033085704
11	0x3e1c2a31	0.1525047
12	0x3d255540	0.040364504
13	0xbe14ca46	-0.14530286
14	0x3cd34188	0.025788084
15	0x3e1422d5	0.14466412
16	0x3d304fe9	0.04304496
17	0xbef7ea45	-0.4842092
18	0x3b2603e6	0.0025331913
19	0x3b8ce8c5	0.004300209
20	0xbe1ce9d2	-0.1532357
21	0x3e284927	0.16434155
22	0x3dc43bcf	0.0958172
23	0xbdf09e43	-0.11748936
24	0xbcbdb8a7	-0.023159338
25	0x3de98412	0.114021435
26	0xbd17c25b	-0.037050586
27	0xbe09b98b	-0.13449685
28	0x3df867a9	0.121291466
29	0x3d9d176c	0.07670483
30	0xbc7f2b0c	-0.015574228
31	0x3c92134f	0.017831473
32	0x3df3c09e	0.11901973
33	0xbd026ddc	-0.03184305
34	0x3cb667f6	0.02226637
35	0xbdce61fd	-0.100772835
36	0xbe1267ac	-0.1429736
37	0x3c305fb3	0.010765004
38	0xbcf6b267	-0.030114366
39	0xbe039ea6	-0.12853488
40	0xbccfcc3a	-0.025365938
41	0xbf3317a9	-0.6995798
42	0x3d152d8e	0.036420397
43	0x3d5568b3	0.052101802
44	0x3e82dcca	0.25559074
45	0xbe2c8089	-0.16845907
46	0x3c8e3fc2	0.017364386
47	0x3c2cd70c	0.010549318
48	0xbec5877b	-0.38579926
49	0x3ea0ae87	0.31383154
50	0x3d5bd8d6	0.053673588
51	0xbdba66fa	-0.091016725
52	0x3a848490	0.0010110307
53	0xbe52b5bc	-0.20577139
54	0x3bdeae05	0.006795647
55	0x3cb4f619	0.022090005
56	0xbae59c60	-0.0017517917
57	0xbe451253	-0.19245271
58	0xbe0c0e6a	-0.13677374
59	0xbd8bfc20	-0.068351984
60	0xbdc3d81d	-0.09562705
61	0x3d19db73	0.0375628
62	0xbd227ea2	-0.039671548
63	0xbdc0006d	-0.09375081
64	0xbecb725a	-0.3973568
65	0x3ec3d943	0.38251695
66	0xbee5fbf4	-0.44918787
67	0x3d7153c0	0.05891776
68	0x3ea2c860	0.317935
69	0x3e90673a	0.28203756
70	0x3ce72a79	0.028218495
71	0x3d373bf2	0.044734903
72	0x3e85f284	0.26161587
73	0x3ea76213	0.32692012
74	0xbe81bbe5	-0.25338665
75	0x3e3e1761	0.18563606
76	0x3d407989	0.046990905
77	0xbd0d73b1	-0.03453416
78	0x3d5764f0	0.052586496
79	0x3e63e611	0.22255732
80	0xbe199629	-0.14998688
81	0x3ef39d51	0.4758096
82	0x3e5a353d	0.21309371
83	0xbe1c9df3	-0.15294628
84	0xbd9cf09d	-0.07663081
85	0x3e92f692	0.28703743
86	0x3e9a46f0	0.30132246
87	0xbe6395d5	-0.22225125
88	0x3c28cd9a	0.0103029255
89	0x3e35f538	0.17769325
90	0xbc0d3590	-0.008618727
91	0xbdfc0281	-0.12305165
92	0x3e198e58	0.14995706
93	0x3ea28578	0.31742454
94	0x3e973625	0.29533496
95	0x3e937244	0.28798115
96	0x3e26b592	0.16280201
97	0xbe5760b0	-0.21032977
98	0x3ee33a9d	0.44380656
99	0xbf25f8fc	-0.64833045
100	0x3c972b87	0.018453373
101	0xbe395e19	-0.18102302
102	0xbe952d60	-0.2913618
103	0x3ea8088f	0.3281903
104	0xbf566e25	-0.8376182
105	0x3f0a0600	0.53915405
106	0xbeb993cb	-0.3624557
107	0x3e366ac7	0.1781417
108	0x3e99bdf9	0.3002775
109	0xbe186547	-0.14882384
110	0xbe92200f	-0.28540084
111	0x3ead8b0b	0.33895144
112	0x3e87f31d	0.26552668
113	0x3d9136c3	0.07090523
114	0xbf25f5fe	-0.6482848
115	0xbf6c55e5	-0.92318565
116	0xbe9dc137	-0.30811474
117	0xbdc585e6	-0.0964468
118	0xbf223c73	-0.6337349
119	0x3ed95a6e	0.42451805
120	0xbe6f104b	-0.23346059
121	0x3ec74af6	0.38924378
122	0xbe913061	-0.28357223
123	0x3eda3e75	0.42625776
124	0xbe95c75c	-0.29253662
125	0xbe5a20f8	-0.21301639
126	0xbd53520c	-0.051591918
127	0xbde1315b	-0.10995742
128	0xbed87d5a	-0.42283136
129	0x3e1eb61c	0.15499157
130	0xbf2e37d3	-0.6805393
131	0x3d501d03	0.050808918
132	0x3e5a7d74	0.21336919
133	0x3d93e8ab	0.07222112
134	0xbbec9cde	-0.0072208485
135	0xbd8c82ff	-0.06860923
136	0xbcf72c0f	-0.030172376
137	0x3e1f35c6	0.15547857
138	0x3c271774	0.010198463
139	0x3d3c3e87	0.04595807
140	0x3a1e086b	0.0006028476
141	0xbb972477	-0.0046125012
142	0xbd12d5d9	-0.035848472
143	0x3dacfc97	0.08446615
144	0x3c4f8f36	0.0126684215
145	0x3ea98b97	0.3311431
146	0x3d9508f1	0.07277096
147	0x3e131c02	0.14366153
148	0x3df6535a	0.12027617
149	0x3e053778	0.13009441
150	0x3d4aec7c	0.049541935
151	0xbdc2772b	-0.09495386
152	0xbd5cb2cb	-0.053881448
153	0x3d9d5dc4	0.076839
154	0xbcdffb12	-0.0273414
155	0xbe590992	-0.21195057
156	0x3e1273bd	0.14301963
157	0x3dbdadba	0.09261651
158	0x3d1c82dd	0.03821074
159	0x3e1882c6	0.14893636
160	0x3df1eca0	0.11812711
161	0xbca2e243	-0.01988328
162	0x3e0641f8	0.13111103
163	0xbf2d944e	-0.6780442
164	0xbd84f5e3	-0.06492212
165	0x3d5292df	0.0514096
166	0xbdf63ecc	-0.12023696
167	0x3daaa7a8	0.08332759
168	0xbf731e45	-0.9496806
169	0x3e65631d	0.2240109
170	0xbe9ce7e1	-0.3064566
171	0x3d137bee	0.03600686
172	0x3abc1265	0.0014348744
173	0x3e40020a	0.18750778
174	0xbeaf4253	-0.3423029
175	0x3e7da66c	0.24770516
176	0x3e376ba9	0.17912163
177	0x3e9d3c2a	0.30709964
178	0xbf47a838	-0.77991056
179	0xbf5af213	-0.85525626
180	0xbdd0c48e	-0.1019374
181	0xbb8fa062	-0.004383133
182	0xbf27c5e3	-0.65536326
183	0x3e22e775	0.15908606
184	0xbd25e400	-0.04050064
185	0x3e8a214c	0.26978528
186	0xbd6a5305	-0.05720808
187	0x3ea1b241	0.3158131
188	0x3d2e9f7c	0.042632565
189	0x3ba8608a	0.0051384615
190	0x3cc6c182	0.024262194
191	0xbe0d39d1	-0.13791586
192	0xbc4864c2	-0.012231054
193	0xbd7ebd43	-0.062192213
194	0xbd06e063	-0.032928836
195	0x3e26c7f1	0.16287209
196	0xbce748be	-0.028232928
197	0xbd075249	-0.033037458
198	0x3cd53def	0.026030509
199	0x3e1ae11b	0.15124933
200	0x3dab417e	0.08362101
201	0x3ddb77e2	0.10716225
202	0x3cb6b881	0.022304775
203	0x3df1b45e	0.118019804
204	0x3df220fd	0.11822698
205	0xbe3a5d10	-0.18199563
206	0x3d827310	0.06369603
207	0x3dc9673b	0.09834143
208	0x3c403275	0.01173078
209	0xbe7cb0ca	-0.24676815
210	0x3d92a48f	0.07160293
211	0x3da6aabf	0.08138036
212	0xbd14f7cc	-0.03636913
213	0xbcae3ffc	-0.021270745
214	0x3b590ed7	0.0033120418
215	0xbcd60d60	-0.026129425
216	0xbda3b065	-0.07992629
217	0x3e2d527c	0.16925997
218	0xbd29d994	-0.041467264
219	0x3d023cab	0.03179614
220	0x3d034095	0.032044012
221	0x3ddae094	0.10687366
222	0x3dc230e8	0.094819844
223	0x3dcb7b8e	0.099356756
224	0x3dd84b22	0.105612054
225	0xbcaeef4b	-0.021354338
226	0x3d1fb288	0.03898862
227	0xbd89550d	-0.06705675
228	0xbe05de42	-0.13073066
229	0x3ca93bba	0.020658363
230	0x3c392821	0.011301071
231	0xbd49ea88	-0.049295932
232	0x3c94a490	0.018144876
233	0xbeadb9eb	-0.33930907
234	0xbddd50a7	-0.10806399
235	0xbc0b0549	-0.008485147
236	0x3e368c35	0.17826922
237	0xbdade645	-0.08491186
238	0xbe0ff6a4	-0.1405893
239	0xbd2d4e7e	-0.042311184
240	0xbe23344d	-0.1593792
241	0x3e316ee0	0.17327452
242	0xbdcd561e	-0.10026191
243	0x3d4c0afb	0.04981516
244	0xbdd3c71e	-0.10340713
245	0x3d3d5422	0.046222813
246	0x3d343ae8	0.04400149
247	0x3de91682	0.11381246
248	0xbcae47f4	-0.021274544
249	0xbe00782d	-0.12545843
250	0x3ccf9cd6	0.02534334
251	0x3e073d4f	0.13206981
252	0xbd5304c8	-0.05151823
253	0x3daea348	0.08527237
254	0x3d474021	0.048645142
255	0xbdbefabd	-0.09325168

sequential_2/dense_2/BiasAdd/ReadVariableOp:0 f4 [64]
0	0x3de01fcc	0.10943565
1	0xbd871321	-0.065954454
2	0x3d95810a	0.07300003
3	0xbdf39428	-0.11893493
4	0xbd7cf471	-0.061756555
5	0xbdb7c493	-0.089730404
6	0xbdf23f6a	-0.118285015
7	0x3df6f62d	0.12058673
8	0xbdf13b95	-0.117789425
9	0xbdd38c2b	-0.10329469
10	0x3e176422	0.14784291
11	0xbd92958d	-0.07157431
12	0xbd5be56a	-0.053685583
13	0xbda7932e	-0.08182369
14	0xbd8211dc	-0.06351063
15	0xbd4c9074	-0.04994245
16	0xbd3429df	-0.043985244
17	0xbe070e18	-0.1318897
18	0xbdcf3372	-0.10117234
19	0x3db39af7	0.087697916
20	0x3dfee6ce	0.12446366
21	0xbd63789f	-0.055534955
22	0x3c134ac6	0.008989995
23	0x3df23b8a	0.118277624
24	0xbc488174	-0.012237895
25	0x3df57860	0.1198585
26	0x3cb92a3f	0.022603152
27	0xbce5a3a2	-0.028032128
28	0x3e0ac569	0.13551868
29	0xbdfaa440	-0.122383595
30	0xbe1db982	-0.15402797
31	0xbd40f99b	-0.047113042
32	0xbd4dbcc6	-0.050228857
33	0x3df64d55	0.12026469
34	0x3baf99ef	0.0053589265
35	0x3de7fcd7	0.11327522
36	0xbd29621f	-0.04135334
37	0x3e17b0ab	0.14813487
38	0x3e166f21	0.1469083
39	0xbe8bb511	-0.2728658
40	0x3df3be4e	0.11901532
41	0xbe3f43d3	-0.18678217
42	0x3dc6e44e	0.097115144
43	0xbd9fbb7d	-0.077994324
44	0x3d706539	0.058690283
45	0x3dde9522	0.108682886
46	0x3dd70860	0.10499644
47	0xbd7dc99e	-0.061959855
48	0xbeab7abf	-0.33492085
49	0x3d05b63a	0.032644488
50	0x3df3a207	0.11896139
51	0x3e0da10d	0.13830967
52	0x3e166c0b	0.14689653
53	0x3d94afdc	0.07260105
54	0x3def32f5	0.11679641
55	0xbd928b1c	-0.07155439
56	0x3e03bb18	0.1286434
57	0xbdca3e46	-0.09875159
58	0x3e00074b	0.12502782
59	0xbdc649d7	-0.096820526
60	0x3e0ce133	0.13757782
61	0x3e3cbf79	0.18432416
62	0xbc3d8fda	-0.011569941
63	0xbd82a4a1	-0.06379057

const_fold_opt__123 f4 [1, 32, 1]
0	0xbb9d93dc	-0.004808886
1	0xbe1b1879	-0.15146054
2	0xbe627deb	-0.22118346
3	0xbd141228	-0.036150128
4	0xbdf38ba8	-0.11891872
5	0xbd92c2c9	-0.071660586
6	0xbdb1d384	-0.086829215
7	0xbce71c4f	-0.02821174
8	0xbe3559f7	-0.177101
9	0xbce17991	-0.027523788
10	0xbd41b0c0	-0.047287703
11	0xbe3b101c	-0.18267864
12	0xbd3df12d	-0.04637258
13	0xbd4560f2	-0.048188157
14	0xbe4a27bf	-0.19741724
15	0xbd6c0dc1	-0.057630304
16	0xbd25e846	-0.040504716
17	0xbdb040de	-0.086061224
18	0xbe089e84	-0.13341719
19	0xbec80a64	-0.39070427
20	0xbe50696e	-0.20352718
21	0xbba43b31	-0.005011939
22	0xbbf5423f	-0.007484704
23	0xbd654e91	-0.05598313
24	0xbebfbad3	-0.37447223
25	0xbe4abef2	-0.19799402
26	0xbb781105	-0.0037851941
27	0xbe18c7e4	-0.14920002
28	0xbd5eb71c	-0.054373845
29	0xbdef112e	-0.11673199
30	0xbd1c127f	-0.038103577
31	0xbe590eaf	-0.21197008
