src/main/resources/models/cnn_2.onnx (onnx, 143542 bytes, 5 tensors)

sequential_1/isFraud/MatMul/ReadVariableOp:0 f4 [64, 1]
000000 73 8c 3f bf fe 0d 41 3e 66 c8 cd bc 84 97 e1 3e
       -0.74823684 0.18852994 -0.025119971 0.4406091
000010 9f ac d2 bc 13 17 25 3c cc 6b 3c 3d 60 8c a4 bd
       -0.025717078 0.010076302 0.04600124 -0.08034587
000020 6c 3c 2a 3e 99 3d 2f 3e 9f 8b 12 bf 6b 13 70 be
       0.16624612 0.17113341 -0.57244295 -0.23444907
000030 13 8e 89 be 87 78 33 be 3c 66 80 be 38 95 d2 bd
       -0.26866207 -0.17526446 -0.25078 -0.102823675
000040 e1 42 0b 3e a2 0b 05 bf 5a 44 0e 3e 8e 47 b9 be
       0.13599731 -0.51970875 0.13893262 -0.36187404
000050 e6 1f 34 3e 53 3b 2b be 63 86 96 3e af 85 38 bf
       0.17590293 -0.16721849 0.29399404 -0.72078985
000060 47 84 67 3e 7d e8 a9 3e 10 6f 3b bd 22 62 85 bd
       0.22609054 0.33185187 -0.045760214 -0.06512858
000070 10 2d f3 3d 94 e3 e9 bd c3 f3 65 3e 2a d3 93 3e
       0.11873829 -0.1142036 0.22456269 0.28872043
000080 28 6e 94 bd 35 f8 4a bf 99 4b 82 3d 92 ea 2f bf
       -0.07247573 -0.79284984 0.06362075 -0.687173
000090 52 0c 81 bd c8 26 03 bd 21 2a c8 be c4 0d da 3e
       -0.06301178 -0.032019407 -0.39094642 0.42588627
0000a0 36 8b 6f 3f 52 ec 4b be 08 3f 44 3d 0a a5 a4 3e
       0.93571794 -0.19914368 0.047911674 0.32157165
0000b0 08 f9 23 3c d3 dd 21 3f a1 39 75 be 2e 11 1b bc
       0.010008104 0.632291 -0.23947765 -0.009464545
0000c0 74 4b a8 3d 08 65 18 3f 33 ed c3 3e a5 41 b5 be
       0.082175165 0.5952916 0.38266906 -0.35401645
0000d0 30 dc 86 be bd 58 cd 3e 8a a1 b2 bd 45 a0 00 bf
       -0.26339865 0.40106764 -0.087222174 -0.5024455
0000e0 81 b5 72 3e 5e 8e be 3e bc 6f b2 be 3e b2 35 be
       0.23702051 0.37217993 -0.34850872 -0.17743775
0000f0 7b 7f 16 3e 49 2f fe bd f0 af 09 3d 35 e2 23 3e
       0.14697067 -0.12411363 0.033615053 0.1600426

sequential_1/dense_1/MatMul/ReadVariableOp:0 f4 [544, 64]
000000 66 d5 89 3e de 5f db 3e 4e 37 ab 3d 10 fe dc 3e
       0.26920623 0.42846578 0.08360158 0.43162584
000010 06 d5 3b be 05 d3 e8 3c bf d5 89 3e e0 73 a7 be
       -0.1834298 0.028420934 0.26920888 -0.32705593
000020 51 1a a8 3e 38 d2 ef 3e d5 e1 7e be 26 e9 00 c0
       0.32832578 0.46840072 -0.24890836 -2.0142303
000030 cd eb cb bf ca 2f c3 bf 6c ca 85 be b2 96 c8 bd
       -1.5931336 -1.5248959 -0.26130998 -0.09794368
000040 03 fe 81 3e 62 10 35 3e 4c 8e b8 3e 57 cb d3 bf
       0.25389108 0.17682031 0.36046064 -1.6546429
000050 9e 56 4f 3e c5 88 94 bd a7 a2 90 3e d4 1c ef bc
       0.20247886 -0.07252649 0.28249094 -0.029188551
000060 f8 85 eb 3d 34 3c 85 3d d1 81 6b 3a 33 0f 60 be
       0.11500162 0.065056235 0.0008983883 -0.21880798
000070 f0 a4 35 3e 4f 04 9a be 44 6d 45 3e 80 bd 6c 3e
       0.177387 -0.30081412 0.19279963 0.23119164
000080 64 73 99 be 45 c6 c3 3d 43 8e c9 3e 91 1c 53 3e
       -0.2997085 0.09559301 0.3936635 0.20616366
000090 04 7a b3 be a5 d8 a0 be 76 d0 df bf 1f ab d1 3e
       -0.35054028 -0.31415287 -1.7485492 0.40950868
0000a0 69 55 e2 3e 97 f9 bf bd 20 57 87 3e b7 56 98 3e
       0.44205788 -0.09373777 0.2643366 0.29753658
0000b0 03 75 f9 bc 97 8f 08 3e 24 ba cd bf 36 68 95 be
       -0.030451303 0.13336025 -1.6072431 -0.2918107
0000c0 ab eb 12 3e a3 b0 a6 3e a8 17 f2 3e a4 df 00 c0
       0.14347713 0.32556638 0.47283673 -2.01365
0000d0 75 81 e9 bf d4 81 ab 3c 1e f9 95 be ae 9d b3 3c
       -1.8242632 0.02093593 -0.29291624 0.021925773
0000e0 48 42 cd 3e 7d 87 c7 bb 91 4e 9d be e7 29 72 be
       0.4008963 -0.0060891495 -0.30724004 -0.23648797
0000f0 71 44 99 3e e2 1c 84 be b5 37 72 3e 9b 68 6f 3e
       0.2993503 -0.25803286 0.23654063 0.23379748
000100 92 b5 23 3f 26 f9 53 be 57 99 ce bd 03 cd 23 3d
       0.6394893 -0.20700511 -0.10087841 0.039990436
000110 54 30 55 3e 49 de 04 bd 79 d2 1e be f1 e3 54 3e
       0.20819217 -0.03243855 -0.15509976 0.20790078
000120 f1 be a4 be 48 8a 34 be 4a 3e 01 3d ff 21 21 bf
       -0.32176927 -0.17630875 0.031553544 -0.629425
000130 d3 2e 11 bf 11 ea 09 bf 50 42 c3 3e 2e 78 40 3e
       -0.56712073 -0.5387278 0.3813653 0.18795845
000140 90 01 14 be ce 58 02 3f db 8c c3 be b7 6e 40 bf
       -0.14453721 0.50916755 -0.38193402 -0.7516894
000150 17 c4 c6 be 7d 58 77 be 47 30 3c be 8a 19 ce 3e
       -0.3882148 -0.2415485 -0.18377791 0.4025386
000160 8e ee 79 be 33 99 b1 be 03 4a 96 bb 43 e5 4a be
       -0.24407408 -0.34687194 -0.0045864596 -0.19814019
000170 d4 c4 02 be b4 46 a2 3e 76 52 b2 be a1 eb 66 be
       -0.12770396 0.31694567 -0.34828538 -0.22550823
000180 6d b1 9b 3e d3 75 f6 3e 68 1d a1 be cb 76 e5 3c
       0.30408803 0.48136768 -0.31467748 0.028010746
000190 a5 5e 51 3e fa c9 6c 3e ef 79 25 bf 02 75 c1 bd
       0.2044626 0.23123923 -0.6463918 -0.094461456
0001a0 73 01 0c be a6 88 db 3e 55 ce 8c be 17 88 6a be
       -0.13672428 0.42877692 -0.2750117 -0.22903477
0001b0 3d 3e a7 bd 3f 57 4f be 4d 0c 05 bf a2 73 67 3e
       -0.08166168 -0.20248125 -0.51971895 0.22602704
0001c0 cc 5c 44 be a0 d6 cd be 14 a3 9d be 20 9b 16 bf
       -0.19176024 -0.40202808 -0.3078848 -0.5883045
0001d0 f0 97 3c bf a6 48 ae bd 15 27 48 3e 16 09 97 3e
       -0.7366934 -0.0850995 0.19546159 0.2949912
0001e0 e6 32 f7 bb 91 27 51 3d 5a 10 b5 3d f6 23 48 3e
       -0.0075439094 0.051063124 0.088410094 0.19544968
0001f0 9c 58 23 be 2e 89 42 3e 14 15 5f be 01 85 29 be
       -0.1595177 0.18997642 -0.21785384 -0.16554643
000200 6d ca 2b 3e 63 9c fb 3d 29 a4 0f bd e9 85 35 be
       0.16776438 0.12285688 -0.035068665 -0.17726864
000210 e3 78 0f be 8c b5 66 3d ea f2 c0 3d 9f cb 1e be
       -0.14010958 0.05632548 0.09421332 -0.15507363
000220 05 6d 12 3c 37 9d 3d 3d 07 00 1b be 91 05 34 bf
       0.008937125 0.04629251 -0.15136729 -0.70320994
000230 8a ed 23 bf 28 d2 2e bf 84 86 42 be 4f 64 c3 bc
       -0.6403433 -0.68289423 -0.18996626 -0.023851542
000240 ed bf 35 3e 11 85 2a 3d ae 5d 3b 3d 63 14 48 bf
       0.17748995 0.04163081 0.045743637 -0.7815611
000250 d8 57 77 bc 37 e1 37 be ab d2 a4 3d 9d 33 0d 3c
       -0.015096627 -0.17957006 0.08047994 0.008618263
000260 31 61 71 3d 68 0d 5c 3e b6 41 35 3c 04 3e ca be
       0.05893058 0.21489489 0.01106303 -0.3950044
000270 f3 73 98 3d 30 84 07 be b7 03 9e 3d 0c 54 83 3e
       0.074439906 -0.1323402 0.07715552 0.2565006
000280 76 18 2c be 4d 83 b0 bc a3 3d aa 3d f4 be da 3e
       -0.16806206 -0.021546984 0.083125375 0.4272381
000290 e0 b2 91 bd 54 ef 12 be 01 fc 45 bf bb 46 86 3d
       -0.07114196 -0.14349109 -0.7733765 0.065564595
0002a0 dd 66 88 bd db 7e b7 3d 70 f2 d7 3c 52 6e bb 3d
       -0.066602446 0.08959743 0.02636072 0.09151901
0002b0 68 7f a8 3c ad 2e 23 3d 1d 0b 5c bf ee 83 5d bd
       0.020568565 0.039839435 -0.8595446 -0.054080896
0002c0 54 00 ab 3d 0f e7 3f 3d c3 ea 8f 3e b3 09 c9 bd
       0.08349672 0.046851214 0.28108796 -0.09816303
0002d0 2f da 7d bf e5 0c 82 3e ba 2c 03 be 1f 57 05 3e
       -0.99161047 0.25400463 -0.1281003 0.13021515
0002e0 6d 7e 21 3e 6d 9a 18 be 1e 80 5a be c0 eb 52 be
       0.15770884 -0.14902659 -0.21337935 -0.20597744
0002f0 98 de e5 3c ec cb 54 bd 82 86 18 3e c2 c3 28 3d
       0.028060243 -0.051952288 0.1489506 0.041202314
000300 9e fa a7 3e 23 f8 97 3d e4 91 17 bd 21 7a 5e bd
       0.32808393 0.07420375 -0.037004367 -0.05431569
000310 70 cb 64 bd da 11 9b bd 72 29 8f 3b 34 9f 93 3b
       -0.055858076 -0.07571764 0.0043689543 0.0045050625
000320 41 ce 10 3d b9 82 a3 3d fe d0 89 3b 25 cb 4f bf
       0.03535295 0.07983918 0.004205822 -0.8116935
000330 bd 37 83 bf e3 3f 72 bf 18 73 ca bd 0d c0 98 3d
       -1.0251385 -0.94628733 -0.09885234 0.07458506
000340 81 0d 48 3d 80 18 cb 3d 29 76 9a 3d 6d 2f 73 bf
       0.048841003 0.099167824 0.075420685 -0.9499424
000350 55 1d 31 3d 60 fe 8f be 07 ca b8 3d 61 cc 6a 3e
       0.043240864 -0.2812376 0.09022909 0.22929527
000360 4e bd b4 3d 9f b5 35 3e 9a 00 9a 3d 4a 20 af be
       0.088251695 0.17745064 0.07519646 -0.34204322
000370 dd 3d 05 3e cd 3c 42 bd 28 f0 4e 3d 25 9d 38 3e
       0.1301188 -0.047421265 0.050522 0.18028696
000380 83 09 33 bd dd 30 64 3d be 0f f5 3d a0 5d fa 3d
       -0.043710243 0.055710662 0.11965893 0.12224889
000390 05 0c ac bd 92 ef 38 bd 4a 50 85 bf 92 c3 84 3c
       -0.0840073 -0.045150347 -1.0415127 0.016206536
0003a0 ef 46 a5 3d d9 19 b0 3d 62 67 90 3c ea 78 2a 3e
       0.0807017 0.0859868 0.017627422 0.16647688
0003b0 9f 4d cf bd 37 e8 9f bd 38 8b 89 bf e6 a4 0f bd
       -0.10122227 -0.07807963 -1.0745611 -0.03506937
0003c0 19 2b f7 3d 37 70 89 3d 97 84 90 3e 32 15 2a bf
       0.12068767 0.067108564 0.28226158 -0.6643859
0003d0 74 8b a5 bf ed 86 0d 3e 91 1c 09 be dc fd e9 3d
       -1.2933183 0.13821001 -0.13389803 0.11425373
0003e0 f7 ec 26 3e b2 04 53 be 17 57 85 bd ff 00 66 bd
       0.16301332 -0.2060726 -0.06510752 -0.056153294
0003f0 9b 81 c6 3d 09 aa 5a 3d ac 1c 26 3e 9f 7d 49 ba
       0.09692689 0.053384814 0.16221875 -0.00076862605

sequential_1/dense_1/BiasAdd/ReadVariableOp:0 f4 [64]
000000 e7 4a 99 bc ef 68 0c bd 98 e6 08 bd 06 e6 42 bd
       -0.018712474 -0.03427976 -0.033423036 -0.04758265
000010 da d2 b7 3d f9 44 03 bd d2 f7 9a bd ea 7c f3 3d
       0.089757636 -0.0320482 -0.07566799 0.1188906
000020 1e 1f 17 bc 68 74 76 bd f5 d5 e6 3d dc f1 f3 3d
       -0.0092237275 -0.060169607 0.11271278 0.119113654
000030 6d 22 dd 3d ca 41 cb 3d 88 e8 0d 3e c3 12 ef 3d
       0.10797582 0.09924658 0.13858235 0.116735004
000040 9b 03 62 bd 14 96 f1 3d 88 f1 64 3d 39 cb e9 3d
       -0.05517922 0.11796203 0.055894405 0.11415715
000050 35 c5 15 be 43 90 2a be ce 8e fa bc e8 54 03 3d
       -0.1462601 -0.16656594 -0.030585673 0.032063395
000060 ee ce f7 bc 69 85 1e bd 12 b3 ee bd 37 62 bc bd
       -0.030250039 -0.03870145 -0.11655249 -0.091984205
000070 54 fb 10 bd 59 5b c2 3d ad e9 83 3c 2f 0f dc bd
       -0.035395935 0.094900794 0.016102636 -0.107450835
000080 94 89 ca 3d c8 b0 a6 3d ec 9a 3c bd 34 1a 8b be
       0.09889522 0.08139187 -0.046046183 -0.2716843
000090 f6 8e e7 3d 00 e3 b0 3d 69 51 00 3e b9 da 7b 3d
       0.113065645 0.08637047 0.12531056 0.061487887
0000a0 92 58 09 bc 7b 6c 92 3d 84 c0 9b bd e5 ca 82 bc
       -0.008382933 0.07149597 -0.07605079 -0.015965888
0000b0 db 2d 21 bd 76 5a 02 3e 90 e0 d4 3d 32 35 df 3c
       -0.03935037 0.1272982 0.103943944 0.027247045
0000c0 83 ad 3c bd 08 ea a4 bb c2 ef 4d 3d e1 ce 04 3e
       -0.04606391 -0.0050327815 0.05027748 0.12969543
0000d0 a8 5b dd 3d 7f 67 b5 bd fe 48 d4 3d 3f 2c d2 bd
       0.10808498 -0.08857631 0.10365485 -0.102623455
0000e0 6e ac 88 3b 5c 2c 4c 3d c8 41 cf 3d f4 a9 f9 3d
       0.004170946 0.049846992 0.10119969 0.12190619
0000f0 f2 13 0a bd 80 aa d9 3d ca 4f ac bd dd 4d e9 bc
       -0.033710428 0.106282234 -0.08413656 -0.02847951

sequential_1/conv1d_1/Conv1D/ExpandDims_1:0 f4 [32, 1, 1, 2]
000000 96 09 7a bb d5 b7 56 bb 89 cb 1e 3e db 8c 86 be
       -0.0038152686 -0.003276338 0.1550733 -0.2627934
000010 ff f3 ae be c2 50 34 3c 3c 63 72 be d1 f0 e2 3d
       -0.3417053 0.011005582 -0.23670667 0.11081088
000020 95 1c f0 ba 6d 2c a4 3f c6 93 32 3a 63 61 b6 3b
       -0.0018319065 1.2826058 0.0006812181 0.0055658086
000030 de 31 98 bc 47 9f 52 bf 41 a0 be be 60 2e 8c be
       -0.018578466 -0.8227429 -0.3723164 -0.2737913
000040 ca 86 f5 bc 05 b8 2c bf 79 53 d1 3e 74 5c 20 3e
       -0.029971499 -0.6746829 0.40883997 0.15660268
000050 72 e4 f2 be 4f b2 23 3e 1f ff 96 bc b2 7f 61 bf
       -0.47439915 0.15985988 -0.018432198 -0.8808547
000060 76 02 23 3d 82 b3 f2 bb c0 61 d2 3e de ff 67 bd
       0.03979727 -0.007406653 0.41090202 -0.0566405
000070 2c 20 dd 3e c0 f9 0b bd 76 b7 11 3b 4a 63 8b b9
       0.43188608 -0.034173727 0.0022234595 -0.00026586122
000080 c7 0b d7 be 93 83 10 3e 80 dd f8 bd 29 0f c1 be
       -0.42001173 0.14112692 -0.12151623 -0.3770688
000090 a6 cd 92 b9 0d 30 c7 3a cf 51 da be 4a 68 0e 3e
       -0.0002800051 0.0015196815 -0.4264054 0.1390697
0000a0 7d a0 bd bd 31 bd 8d be 56 26 49 bc 74 0d f4 3c
       -0.09259126 -0.27683404 -0.012277206 0.029791571
0000b0 aa 5e c3 bc a8 0b 08 bf 79 39 9e bd ee 9b 65 be
       -0.02384885 -0.53142786 -0.07725806 -0.22422764
0000c0 3c c2 9f be bd 91 b0 3e 96 41 14 bc 90 d3 a8 be
       -0.31202877 0.3448619 -0.00904884 -0.3297391
0000d0 06 94 11 be 52 13 70 bd d5 35 93 bb 50 35 27 bd
       -0.14216623 -0.058612175 -0.0044925013 -0.040822327
0000e0 24 3e de be c8 ea f7 be 6f f3 2a bf 95 b3 f0 bd
       -0.43406785 -0.4842131 -0.667777 -0.117530026
0000f0 a1 17 e2 3e a8 74 a3 be f3 50 27 3e 41 04 58 3d
       0.44158652 -0.3192494 0.16339473 0.05273843

const_fold_opt__83 f4 [1, 32, 1]
000000 5a 75 ab bd 3e fc d2 bd 6c 79 c4 be c2 75 36 be
       -0.083719924 -0.10302018 -0.38373888 -0.17818359
000010 68 64 8c bb 0d 7d d9 bd 9a 2b 92 bd 75 4c 15 be
       -0.0042844303 -0.10619555 -0.071372226 -0.14579947
000020 6e 79 72 bd 46 d8 c1 be a2 05 7d be e8 17 9d bd
       -0.059197836 -0.37860316 -0.2470918 -0.076705754
000030 4a fb 01 be 35 3f 65 bd 58 02 35 bd 2f c9 f7 bc
       -0.12693515 -0.055968482 -0.04419169 -0.030247299
000040 61 e7 62 be 0b 96 59 be 75 a8 fc bc c3 c5 5b be
       -0.22158577 -0.21248643 -0.030842045 -0.21462159
000050 ae 6c c6 bd c5 ff ad bc 0b a3 32 bd 3d 21 9f bd
       -0.09688698 -0.021240124 -0.04361252 -0.077700116
000060 2a fa 89 3c 27 7d fa bc 28 20 18 be c5 1e 05 be
       0.01684292 -0.030577255 -0.14856017 -0.13000019
000070 17 4f 88 be 77 1c 9e bd f3 a0 49 be c4 51 7d be
       -0.2662284 -0.07720273 -0.19690304 -0.24738222
